.dart_tool/chrome-device/Default/optimization_guide_prediction_model_downloads/e2c371c7-b99a-4be5-a98c-558870b8efc3/model.tflite (tflite, 409956 bytes, 166 tensors)

context_transformer_0/bottleneck_input/norm/add f4 [32]
0.004487173 -0.23280188 -0.048198026 -0.033933297 -0.041067444 0.01715747 0.02761276 -0.062573776
0.023075819 -0.09249618 -0.031153265 0.021248942 0.09312877 0.052354753 0.052305773 0.017277567
0.08514253 -0.13282442 -0.117468186 -0.0075542554 -0.038999602 0.05166679 -0.043504443 -0.027682293
-0.049358293 -0.03537235 0.0007209582 0.07846533 -0.07607928 -0.03483694 -0.069177 -0.13232356
00000000: 2309 933b 9e63 6ebe 4b6b 45bd a4fd 0abd
00000010: 5636 28bd d38d 8c3c 2834 e23c ae26 80bd
00000020: 8009 bd3c a36e bdbd 2235 ffbc 4312 ae3c
00000030: 4cba be3d f071 563d 943e 563d af89 8d3c
00000040: 355f ae3d 2003 08be 2993 f0bd b089 f7bb
00000050: 0cbe 1fbd 8ea0 533d b731 32bd fac5 e2bc
00000060: ec2b 4abd 99e2 10bd b0fe 3c3a 6eb2 a03d
00000070: 74cf 9bbd 2eb1 0ebd acac 8dbd d47f 07be

context_transformer_1/bottleneck_input/norm/add f4 [32]
0.06722491 -0.05346269 -0.03364797 -0.11024986 -0.037251957 -0.050490417 -0.05063712 0.02145014
-0.11549464 0.13843238 -0.13728675 -0.05144147 0.17535505 0.07048536 0.22037497 -0.13333264
0.16886549 -0.08679353 0.03765428 0.038360007 0.3661821 -0.1552999 0.075912364 0.17585403
-0.12612176 0.021631321 0.07957968 0.1427727 -0.024955537 0.14967221 0.08324353 0.10350817
00000000: 37ad 893d b2fb 5abd 74d2 09bd aeca e1bd
00000010: 8295 18bd 0acf 4ebd de68 4fbd 34b8 af3c
00000020: 7488 ecbd 38c1 0d3e e694 0cbe 4ab4 52bd
00000030: 4690 333e a15a 903d faa9 613e 5a88 08be
00000040: 13eb 2c3e cec0 b1bd 603b 1a3d 621f 1d3d
00000050: 387c bb3e f006 1fbe f177 9b3d 1413 343e
00000060: 1026 01be 2b34 b13c acfa a23d 0233 123e
00000070: 8e6f ccbc ac43 193e 957b aa3d 17fc d33d

mention_transformer_0/bottleneck_input/norm/add f4 [32]
-0.05943841 0.072242625 0.2959687 0.008322559 0.13344274 0.17258757 0.11758432 0.27645248
0.2151281 0.019254874 0.20353457 -0.07630638 -0.030221546 0.053753823 -0.029072087 0.059147798
0.036443964 0.06852867 0.002489111 -0.09331602 -0.039194204 0.12786692 -0.11086215 0.026357781
-0.0145519115 -0.13478108 0.014448818 -0.07822344 0.0472155 0.0833911 -0.068096705 -0.04118847
00000000: b175 73bd f1f3 933d 3689 973e 585b 083c
00000010: 37a5 083e ccba 303e 0cd0 f03d 2e8b 8d3e
00000020: 8a4a 5c3e 66bc 9d3c 5e6b 503e 8546 9cbd
00000030: 2d93 f7bc f82c 5c3d 9628 eebc f644 723d
00000040: 4446 153d c258 8c3d 5a20 233b 781c bfbd
00000050: 1a8a 20bd 8cef 023e b20b e3bd 46ec d73c
00000060: 246b 6ebc 0d04 0abe bcba 6c3c 9c33 a0bd
00000070: 0a65 413d f4c8 aa3d 4976 8bbd 3eb5 28bd

mention_transformer_1/bottleneck_input/norm/add f4 [32]
0.13686486 -0.1559894 0.15758127 0.4621153 0.24619561 -0.15846373 -0.28881568 -0.35658643
0.07029927 -0.038704712 0.0013612155 -0.21110626 0.034066197 0.2642398 -0.15494347 0.16702193
0.04234119 -0.13409393 -0.0029925704 -0.18064305 0.25302798 0.2426418 -0.22359958 0.39656115
-0.23534828 0.18827832 0.03968794 0.16066928 -0.04791716 0.095639035 -0.12524828 -0.16509463
00000000: 4d26 0c3e afbb 1fbe fc5c 213e 609a ec3e
00000010: b41a 7c3e 5144 22be a6df 93be 7f92 b6be
00000020: 10f9 8f3d d588 1ebd d06a b23a 3d2c 58be
00000030: ff88 0b3d 704a 873e 80a9 1ebe cc07 2b3e
00000040: f56d 2d3d eb4f 09be 001f 44bb 7efa 38be
00000050: e28c 813e 1877 783e 4af7 64be 100a cb3e
00000060: 24ff 70be 08cc 403e d28f 223d 7d86 243e
00000070: c944 44bd 66de c33d 1641 00be 910e 29be

context_transformer_0/attention/value/add;context_transformer_0/attention/value/einsum/Einsum;context_transformer_0/attention/value/add/ReadVariableOp/resource f4 [32]
0.053948313 -0.013747999 0.032905553 0.0653904 -0.009011481 -0.088625364 -0.026851507 -0.030025924
0.07730507 0.05615745 -0.06578001 0.014900714 -0.0567668 0.02171605 0.031651758 -0.12116887
-0.019921962 -0.09218271 -0.03946373 0.08522453 0.00588087 0.0052564703 -0.009626426 -0.0036535591
0.021561898 -0.024067078 0.10122619 -0.03779696 -0.010946198 -0.058367454 -0.055299044 0.07358159
00000000: e8f8 5c3d 4a3f 61bc f9c7 063d 67eb 853d
00000010: e4a4 13bc 3781 b5bd b1f7 dbbc edf8 f5bc
00000020: 1f52 9e3d 5b05 663d abb7 86bd 2022 743c
00000030: 4e84 68bd dce5 b13c 46a5 013d 6227 f8bd
00000040: 6233 a3bc 4aca bcbd b8a4 21bd 338a ae3d
00000050: 50b4 c03b 783e ac3b 28b8 1dbc 8d70 6fbb
00000060: 94a2 b03c 5228 c5bc ad4f cf3d fcd0 1abd
00000070: af57 33bc b612 6fbd 4081 62bd f2b1 963d

context_transformer_0/bottleneck_input/norm/mul f4 [32, 32]
0.20104885 0.36602202 -0.32438812 0.069962494 -0.12876268 0.038547732 -0.12990637 0.28374523
-0.35115972 -0.17701694 -0.13933939 0.031688895 -0.20293275 0.03738509 0.01582337 0.012184176
-0.006942725 0.20038408 0.058895566 0.049225293 0.29397237 -0.14382713 0.0024434065 0.20396322
0.16672714 -0.06510755 -0.16850416 0.00057820126 -0.38823667 0.26798746 0.0026221103 -0.104607835
-0.11593808 -0.2166469 0.17485179 -0.018163973 -0.047290824 -0.17850381 0.20393643 -0.16647786
-0.10719043 -0.13545293 -0.14419805 0.24189675 -0.09856562 0.051298153 0.042824447 0.057095714
0.053427447 0.27873313 -0.17171799 0.10855726 -0.049629893 0.10324425 0.100875914 -0.08596953
-0.14308554 0.08558614 -0.24016242 -0.11106614 -0.2860445 -0.05331414 -0.030566067 -0.06859261
0.036009926 0.16399586 0.11056404 -0.2037622 0.044611625 0.007405129 -0.025231525 -0.12832408
0.08075656 0.13581902 -0.03566759 0.14792489 -0.27172172 0.06868093 0.18767269 -0.13542606
0.029662807 -0.02412207 0.0061794147 -0.0130595835 -0.09378578 -0.3326256 0.18402337 0.052300297
-0.029587949 0.32435718 -0.24992381 0.08213013 -0.031720363 0.20701449 0.06761053 -0.08169322
0.18343236 -0.13972516 0.066602804 0.030383065 0.04210683 -0.47811487 0.12939665 0.030800192
0.42183387 0.17340793 -0.20761734 -0.41696048 0.33675495 -0.20286486 0.49538767 0.17788674
0.008053377 -0.1803222 -0.067457534 -0.14976169 -0.15572023 0.27954426 -0.28940523 0.23473287
0.12675716 -0.13215862 0.11543192 0.030967275 0.28271407 0.13333161 -0.13462119 -0.24313188
-0.20777266 -0.36540473 0.24158847 0.054915793 0.13747133 -0.23069611 -0.11629267 -0.12398975
0.45230758 -0.051405635 0.18203236 0.00017225985 0.15195274 0.21897413 -0.16926892 0.17548281
0.023324259 -0.15769534 0.00086833554 0.16286917 -0.08445536 -0.4564314 0.10327425 -0.2184964
0.020094883 0.123057015 -0.054517303 -0.07116309 0.03270838 -0.35199508 -0.045036267 0.23346816
0.2568746 -0.016504303 -0.013861793 0.14374158 0.093636855 0.16493255 0.30910283 -0.16566925
0.036921177 0.38187158 -0.015405584 0.29943952 0.6506149 -0.26934797 0.02916697 0.32140163
0.08348742 -0.5411053 0.46365643 0.50396633 -0.028048888 -0.16558568 0.7484211 -0.41060522
0.43539107 0.14328222 0.41068798 -0.529319 -0.16181795 -0.5718371 0.05524684 0.018042857
-0.30538097 0.041123692 -0.49622938 0.21568845 -0.50678307 0.12258145 -0.31697515 0.39914966
0.046991095 -0.20289557 -0.03914757 0.34769922 0.021070855 -0.029194642 -0.56177115 -0.24094595
-0.094505176 0.019466782 -0.21282925 0.2597896 0.026893256 0.121720605 0.1368578 -0.03626575
0.03067901 0.117753536 0.15074417 -0.11021456 0.12107529 0.37377238 0.086250685 -0.010000616
-0.06808442 -0.12868384 -0.045022704 -0.048620537 -0.041774206 -0.027210739 0.13165212 0.011213679
0.16177991 0.08923469 0.0010129916 -0.11990239 -0.05736026 -0.08142092 0.074537314 0.12155909
-0.04218158 0.030862818 0.070674755 0.11696361 0.0762444 -0.012019812 -0.0622371 0.13104227
0.036439344 -0.07490138 0.049975377 -0.073122896 -0.0023399228 -0.047100347 0.007209006 -0.05737228
00000000: c0df 4d3e 3d67 bb3e 3316 a6be 7f48 8f3d
00000010: 5dda 03be 3ae4 1d3d 2d06 05be 0e47 913e
00000020: 35cb b3be ee43 35be fcae 0ebe 37cc 013d
00000030: 9acd 4fbe 1c21 193d 03a0 813c 23a0 473c
00000040: cc7f e3bb 7c31 4d3e 7a3c 713d 76a0 493d
00000050: 8c83 963e 6b47 13be 8f21 203b bcdb 503e
00000060: 85ba 2a3e 1b57 85bd 5b8c 2cbe 6e92 173a
00000070: f5c6 c6be a735 893e b6d7 2b3b a23c d6bd
00000080: f270 edbd afd8 5dbe 590c 333e 9dcc 94bc
00000090: 06b4 41bd b4c9 36be b6d4 503e 2c79 2abe
000000a0: a886 dbbd 2cb4 0abe a7a8 13be c8b3 773e
000000b0: c6dc c9bd 031e 523d b068 2f3d 32dd 693d
000000c0: bdd6 5a3d 1cb6 8e3e d7d6 2fbe 4553 de3d
000000d0: b748 4bbd b971 d33d 0898 ce3d cb10 b0bd
000000e0: 0485 12be c947 af3d 23ed 75be a576 e3bd
000000f0: 6d74 92be ed5f 5abd b065 fabc 487a 8cbd
00000100: 257f 133d 88ee 273e 666f e23d 0aa7 50be
00000110: aeba 363d b9a6 f23b 58b2 cebc 6367 03be
00000120: b263 a53d 2414 0b3e 2e18 12bd 9f79 173e
00000130: 1c1f 8bbe 96a8 8c3d 452d 403e 21ad 0abe
00000140: 6aff f23c a69b c5bc b07c ca3b ddf7 55bc
00000150: c212 c0bd e74d aabe 9f70 3c3e d638 563d
00000160: 6d62 f2bc 2512 a63e 07ec 7fbe d733 a83d
00000170: 36ed 01bd 9bfb 533e 6477 8a3d c64e a7bd
00000180: b1d5 3b3e 1d14 0fbe 0d67 883d e8e5 f83c
00000190: 3678 2c3d 79cb f4be 8e80 043e af50 fc3c
000001a0: 9cfa d73e d991 313e a499 54be d87b d5be
000001b0: 256b ac3e cebb 4fbe 74a3 fd3e f127 363e
000001c0: 50f2 033c 62a6 38be 2d27 8abd 215b 19be
000001d0: 2075 1fbe 6d20 8f3e ec2c 94be d05d 703e
000001e0: a1cc 013e 9754 07be 9267 ec3d 15af fd3c
000001f0: e6bf 903e 1588 083e 23da 09be 90f7 78be
00000200: 5bc2 54be 5416 bbbe f862 773e 62ef 603d
00000210: 49c5 0c3e 9a3b 6cbe da2a eebd 57ee fdbd
00000220: dc94 e73e b78e 52bd b166 3a3e a7a0 3439
00000230: 8099 1b3e c13a 603e d554 2dbe c4b1 333e
00000240: 8412 bf3c e37a 21be 03a1 633a 2dc7 263e
00000250: eff6 acbd 60b1 e9be 7381 d33d 85bd 5fbe
00000260: 069e a43c 5105 fc3d 894d 5fbd f4bd 91bd
00000270: 39f9 053d b338 b4be f377 38bd 4712 6f3e
00000280: 1185 833e 0834 87bc 931c 63bc fe30 133e
00000290: aec4 bf3d 14e4 283e ba42 9e3e 33a5 29be
000002a0: a93a 173d ac84 c33e b467 7cbc 2350 993e
000002b0: b38e 263f fae7 89be 92ef ee3c c18e a43e
000002c0: 74fb aa3d e085 0abf 6064 ed3e f003 013f
000002d0: c8c6 e5bc 4b8f 29be 8698 3f3f d93a d2be
000002e0: 94eb de3e 93b8 123e b245 d23e 7381 07bf
000002f0: 9bb3 25be eb63 12bf 834a 623d 9dce 933c
00000300: e55a 9cbe 5171 283d c711 febe 6fdd 5c3e
00000310: 89bc 01bf fc0b fb3d 914a a2be 585d cc3e
00000320: bc79 403d dbc3 4fbe 3459 20bd a205 b23e
00000330: c99c ac3c 9a29 efbc 3cd0 0fbf 89ba 76be
00000340: ee8b c1bd cd78 9f3c e9ef 59be 2403 853e
00000350: 3f4f dc3c a748 f93d 7324 0c3e 658b 14bd
00000360: 8c52 fb3c c428 f13d ae5c 1a3e 2cb8 e1bd
00000370: 52f6 f73d 185f bf3e 33a4 b03d a0d9 23bc
00000380: d86f 8bbd b2c5 03be ba69 38bd 5426 47bd
00000390: 6e1b 2bbd 0ee9 debc d0cf 063e 94b9 373c
000003a0: a2a9 253e adc0 b63d 5cc6 843a 628f f5bd
000003b0: 98f2 6abd 03c0 a6bd 05a7 983d f9f3 f83d
000003c0: 98c6 2cbd 05d4 fc3c edbd 903d 9e8a ef3d
000003d0: 0626 9c3d bfee 44bc 54ec 7ebd f22f 063e
000003e0: 6c41 153d e565 99bd fbb2 4c3d 75c1 95bd
000003f0: 6459 19bb 4bec 40bd 8739 ec3b 32ff 6abd

context_transformer_0/kq_shared_bottleneck/norm/mul;context_transformer_0/kq_shared_bottleneck/norm/add;context_transformer_0/attention/key/einsum/Einsum;context_transformer_0/attention/key/add;context_transformer_0/attention/value/einsum/Einsum;context_transformer_0/attention/key/add/ReadVariableOp/resource f4 [32]
0.34055534 0.080952324 -0.20249683 -0.19257933 0.08180096 -0.27490392 0.16328958 0.24851605
0.0009824162 -0.049572907 0.017255127 -0.0023391147 -0.051659923 -0.038841728 0.078900084 -0.0024184126
-0.11391135 -0.018639281 0.16266888 -0.2482422 -0.15503183 0.052965228 -0.1326701 -0.074313596
-0.052766453 0.113131694 -0.019214343 0.0053298445 -0.04789232 -0.026423367 0.037712384 -0.02071692
00000000: 455d ae3e 55ca a53d 545b 4fbe 8433 45be
00000010: 4387 a73d 35c0 8cbe 6235 273e fe7a 7e3e
00000020: 6bc4 803a f60c 4bbd a05a 8d3c d54b 19bb
00000030: 5b99 53bd 8118 1fbd 5e96 a13d 3b7e 1ebb
00000040: 5b4a e9bd 68b1 98bc ac92 263e 3433 7ebe
00000050: aac0 1ebe 11f2 583d acda 07be ba31 98bd
00000060: a321 58bd 97b1 e73d 6667 9dbc faa5 ae3b
00000070: bd2a 44bd d175 d8bc 4d78 1a3d 88b6 a9bc

context_transformer_0/kq_shared_bottleneck/norm/mul;context_transformer_0/kq_shared_bottleneck/norm/add;context_transformer_0/attention/key/einsum/Einsum;context_transformer_0/attention/key/add;context_transformer_0/attention/value/einsum/Einsum;context_transformer_0/attention/key/add/ReadVariableOp/resource1 f4 [32, 32]
0.15153754 -0.39845127 0.043162268 -0.09647232 -0.28080234 -0.088691 0.32371688 0.15878318
-0.06767481 0.046640873 -0.5058084 0.0024284618 0.06558578 0.023707332 0.11266121 0.017941123
0.022973366 -0.042363927 0.31260794 0.21010382 0.08503203 -0.21820378 0.3505445 -0.22413255
-0.3482463 -0.3894624 0.18261944 0.05538691 -0.16900484 -0.17593871 0.18555234 -0.0110634295
0.2256161 -0.7966743 -0.066814095 0.17817424 -0.20427595 -0.37469545 -0.09291518 0.44280285
0.12943059 0.15178119 0.04197896 -0.15894832 -0.00690424 0.19095787 -0.0125102075 -0.11587533
-0.26138848 -0.068252854 0.019825922 0.19327594 0.03189168 -0.19673401 0.18163928 -0.509155
-0.29143348 -0.085251786 0.11433911 0.14115989 -0.13656735 -0.31760603 0.12804617 0.0057423813
-0.2098383 -0.056238797 0.066291325 0.22854081 -0.08982728 -0.24809238 -0.30834895 -0.35393336
-0.13289568 0.20158836 0.41385898 0.12699749 -0.21496771 0.122142196 -0.19600765 0.08731474
-0.062745504 -0.18976712 0.030409256 0.17068645 -0.16799936 -0.058855265 -0.16006218 0.14418931
-0.114661396 0.24105424 0.00014564414 -0.091116436 -0.044576313 0.21562864 -0.26287487 0.12549824
-0.08478125 -0.04561597 -0.000136709 0.17753656 -0.030880582 0.26329815 -0.30720237 -0.33824325
-0.15475766 0.23811364 0.2719091 -0.015537657 -0.20664932 0.23209289 -0.2340786 -0.2935698
0.27533406 -0.22750282 -0.0053162435 0.22218613 -0.12998758 0.017743025 0.2476386 -0.01947835
0.056881163 -0.026846508 -0.058538515 -0.061365884 -0.07330196 0.12504345 -0.17597419 -0.14929117
-0.25075832 0.84095955 0.19595416 -0.31021255 -0.098732896 0.69342387 0.30782002 -0.5689763
-0.38720185 -0.103923 -0.386184 0.0040122317 0.009086505 -0.20302111 0.06210766 -0.03064681
0.46686822 0.017229175 0.23459683 0.016958939 0.07494376 0.13945703 0.22284229 0.6175607
0.12065772 -0.30446547 0.044059023 -0.08590975 0.09949794 0.31263354 -0.078704365 -0.08245269
-0.1257247 0.16053817 0.06646954 0.14236736 0.018547066 0.08184405 -0.2920939 -0.26317844
-0.04913827 0.091994494 0.37750962 -0.08489117 -0.09051277 0.014000114 -0.123813696 -0.08510726
0.043724712 -0.10909249 -0.121116444 0.14321493 -0.12251759 0.07758151 -0.15930074 0.16669393
0.11076837 0.15065463 0.02450301 -0.06599888 0.095647916 0.12441295 -0.18221124 0.052721787
0.13372818 -0.03728686 -0.01869122 -0.16384877 0.06656926 -0.29368702 0.19674876 0.40740827
0.13268937 -0.243452 -0.21449572 -0.038261607 0.1823455 -0.21124181 0.22950959 0.18223509
-0.23899427 0.20368336 -0.04194451 -0.24587862 0.1356234 -0.011074353 -0.16640453 -0.05124647
0.022790298 0.03324468 0.06382022 0.09544082 0.08876448 -0.22231309 0.1687306 0.11537308
0.15790512 -0.16361171 -0.32715923 -0.024517667 0.14757058 -0.010097496 0.20154616 0.31215966
0.15027338 -0.14321162 -0.15400676 0.41246498 0.066021 0.012236683 0.072001845 0.22943066
-0.19942114 0.116040066 -0.023111662 -0.39636534 0.046000417 0.028692387 -0.010786552 -0.25279853
-0.030678228 0.13902658 -0.3082579 -0.022425484 -0.256587 -0.05206116 0.17004438 -0.076217376
00000000: a82c 1b3e ce01 ccbe ebca 303d 4893 c5bd
00000010: 53c5 8fbe a1a3 b5bd 38be a53e 0f98 223e
00000020: 1799 8abd 800a 3f3d a97c 01bf d426 1f3b
00000030: d651 863d e135 c23c ecba e63d 43f9 923c
00000040: a432 bc3c cc85 2dbd 260e a03e 7525 573e
00000050: 4625 ae3d d070 5fbe 927a b33e 0183 65be
00000060: 574d b2be 9e67 c7be 9700 3b3e 62dd 623d
00000070: 9b0f 2dbe 4729 34be 6f01 3e3e 6343 35bc
00000080: e807 673e d9f2 4bbf d4d5 88bd 4f73 363e
00000090: b72d 51be 15d8 bfbe 504a bebd 0eb7 e23e
000000a0: 7489 043e 876c 1b3e 21f2 2b3d 59c3 22be
000000b0: f73c e2bb 768a 433e 9df7 4cbc 0c50 edbd
000000c0: b6d4 85be 27c8 8bbd f969 a23c 21ea 453e
000000d0: daa0 023d a474 49be a6ff 393e fb57 02bf
000000e0: c536 95be 7d98 aebd a02a ea3d 388c 103e
000000f0: 50d8 0bbe 429d a2be 891e 033e 962a bc3b
00000100: dadf 56be a75a 66bd bfc3 873d 9a06 6a3e
00000110: 5df7 b7bd ee0b 7ebe eadf 9dbe c136 b5be
00000120: ce15 08be 2e6d 4e3e 53e5 d33e a10b 023e
00000130: 7f20 5cbe b025 fa3d 3bb6 48be 12d2 b23d
00000140: b780 80bd 5052 42be d51c f93c 6ec8 2e3e
00000150: 0608 2cbe 3812 71bd 57e7 23be 5da6 133e
00000160: 98d3 eabd ecd6 763e 0db8 1839 419b babd
00000170: a795 36bd c1cd 5c3e 8997 86be 9c82 003e
00000180: cba1 adbd d0d7 3abd 8b59 0fb9 25cc 353e
00000190: 46f9 fcbc 04cf 863e a149 9dbe 382e adbe
000001a0: cb78 1ebe 10d4 733e ab37 8b3e a891 7ebc
000001b0: e19b 53be c2a9 6d3e 4db2 6fbe c84e 96be
000001c0: 96f8 8c3e 80f6 68be e233 aebb c384 633e
000001d0: 771b 05be d259 913c f994 7d3e 1091 9fbc
000001e0: 39fc 683d 35ed dbbc 15c6 6fbd cb5a 7bbd
000001f0: 571f 96bd 640b 003e 9432 34be c9df 18be
00000200: 6563 80be 2049 573f 35a8 483e 2ed4 9ebe
00000210: 7934 cabd 3a84 313f 969a 9d3e 6ea8 11bf
00000220: 523f c6be 95d5 d4bd e9b9 c5be 0a79 833b
00000230: 90df 143c c4e4 4fbe 9a64 7e3d 050f fbbc
00000240: 5a09 ef3e 3324 8d3c 273a 703e 79ed 8a3c
00000250: 1d7c 993d d3cd 0e3e c530 643e 7518 1e3f
00000260: 651b f73d e6e2 9bbe 3c77 343d 73f1 afbd
00000270: 93c5 cb3d 8111 a03e c12f a1bd f5dc a8bd
00000280: fabd 00be 1e64 243e 2f21 883d c0c8 113e
00000290: 04f0 973c da9d a73d 558d 95be 53bf 86be
000002a0: 3645 49bd 9c67 bc3d f148 c13e 6cdb adbd
000002b0: c25e b9bd bc60 653c 0992 fdbd b74c aebd
000002c0: af18 333d e26b dfbd e60b f8bd efa6 123e
000002d0: 81ea fabd 0ee3 9e3d bc1f 23be d0b1 2a3e
000002e0: 87da e23d 3545 1a3e 89ba c83c 6c2a 87bd
000002f0: 0ee3 c33d 37cc fe3d 9595 3abe cdf2 573d
00000300: 0af0 083e 1bba 18bd 541e 99bc f9c7 27be
00000310: 7755 883d 255e 96be 8278 493e d197 d03e
00000320: b9df 073e 7b4b 79be c4a4 5bbe 34b8 1cbd
00000330: c7b8 3a3e c64f 58be 9004 6b3e d69b 3a3e
00000340: eaba 74be 5f92 503e 02ce 2bbd 9bc7 7bbe
00000350: dce0 0a3e 3471 35bc f365 2abe d2e7 51bd
00000360: b8b2 ba3c 932b 083d 2db4 823d 7a76 c33d
00000370: 27ca b53d 0ba6 63be b7c7 2c3e b948 ec3d
00000380: e1b1 213e d489 27be 6a81 a7be 46d9 c8bc
00000390: be1c 173e f86f 25bc 1e62 4e3e 64d3 9f3e
000003a0: 44e1 193e 11a6 12be f3b3 1dbe 9c2e d33e
000003b0: 0536 873d 5e7c 483c b475 933d dfef 6a3e
000003c0: 0e35 4cbe 6aa6 ed3d ab54 bdbc 66f0 cabe
000003d0: ef6a 3c3d 4c0c eb3c 14ba 30bc cf6e 81be
000003e0: e850 fbbc fc5c 0e3e fbd3 9dbe a6b5 b7bc
000003f0: 5f5f 83be 153e 55bd 1d20 2e3e db17 9cbd

context_transformer_0/kq_shared_bottleneck/norm/mul;context_transformer_0/kq_shared_bottleneck/norm/add;context_transformer_0/attention/query/einsum/Einsum;context_transformer_0/attention/query/add;context_transformer_0/attention/value/einsum/Einsum;context_transformer_0/attention/query/add/ReadVariableOp/resource;context_transformer_0/attention/Mul;context_transformer_0/attention/Mul/y f4 [32]
0.14390542 -0.038643416 -0.22288422 -0.077045366 0.18961509 -0.12586291 0.07468546 0.0682465
0.2452861 0.29821262 0.055514876 0.09531281 -0.22638787 0.0107471915 -0.083578415 0.14924298
-0.1895665 0.09722102 0.052462224 -0.025053734 -0.1261148 -0.038769398 -0.151715 -0.036414947
0.23946206 -0.13685212 0.2418697 -0.23456448 0.029979417 0.24749267 0.21884777 0.04542181
00000000: f15b 133e 8f48 1ebd c33b 64be f6c9 9dbd
00000010: 752a 423e 35e2 00be b1f4 983d d2c4 8b3d
00000020: 482c 7b3e 53af 983e 9163 633d 5d33 c33d
00000030: 39d2 67be fd14 303c 292b abbd 27d3 183e
00000040: b81d 42be d01b c73d a1e2 563d 7d3d cdbc
00000050: 3d24 01be a9cc 1ebd 2d5b 1bbe d727 15bd
00000060: 8b35 753e f622 0cbe b1ac 773e ac31 70be
00000070: 6597 f53c b86e 7d3e a119 603e 380c 3a3d

context_transformer_0/kq_shared_bottleneck/norm/mul;context_transformer_0/kq_shared_bottleneck/norm/add;context_transformer_0/attention/query/einsum/Einsum;context_transformer_0/attention/query/add;context_transformer_0/attention/value/einsum/Einsum;context_transformer_0/attention/query/add/ReadVariableOp/resource;context_transformer_0/attention/Mul;context_transformer_0/attention/Mul/y1 f4 [32, 32]
0.019710371 -0.054378808 0.0061717667 0.01739312 -0.09310779 -0.13776457 -0.1468414 -0.040039442
-0.05302952 0.15044782 0.15817635 0.043464247 -0.005006364 0.080806695 -0.115183435 -0.21857546
0.09926809 -0.052856926 0.035569414 0.058887236 -0.079156384 -0.04723267 0.12945557 0.00332591
-0.047083784 0.023733906 0.085580796 -0.047164552 -0.05576956 -0.056102138 -0.106663056 0.045175917
0.08877033 -0.24005046 0.0175441 0.07561982 0.00021525053 -0.3189866 -0.16799086 -0.008783644
0.043568138 0.072485775 0.15480271 -0.02887906 -0.004894034 0.12005531 -0.08152927 -0.21395619
0.029470664 -0.058483787 -0.02366282 0.066022344 -0.07726622 0.018829908 0.114051834 -0.04715162
0.04038077 -0.0693826 0.0364527 0.014409254 -0.0036263675 -0.100906745 -0.01140786 -0.031672835
-0.011357207 -0.14528675 0.04482783 0.06132938 0.07575917 0.2327472 -0.024479914 -0.024752885
0.0016888394 -0.013723875 0.028306806 -0.13382399 -0.058663156 0.057955213 -0.019096814 0.15203232
0.0019808586 -0.032724056 -0.046075333 0.032074355 -0.007929486 0.1080056 -0.094021685 0.02710492
0.07997431 -0.033990726 0.011003459 0.005243612 0.07583175 0.036907062 -0.008735111 -0.033023994
0.124618 -0.12868395 -0.007160144 0.04773531 0.020100871 0.2979266 0.0036931566 0.021942014
0.009445535 0.034027275 -0.043203548 -0.11974993 -0.015301922 0.05740819 -0.01509928 0.082835004
-0.057870388 -0.04217621 0.021083683 -0.006116117 -0.03635521 0.004746042 0.03422055 -0.08928846
0.026005642 -0.032449942 0.004570407 -0.035571802 -0.0494675 -0.016993275 0.01893345 -0.031908523
-0.052817088 0.30754662 -0.019826032 -0.10781208 -0.086701736 0.4517638 0.14787854 0.009300075
-0.10378475 -0.0013590907 -0.19090763 -0.0017844334 0.021405222 -0.10486666 0.03164449 0.06697548
0.026271226 0.025362054 0.069995135 -0.042843252 0.021369223 -0.09172949 -0.014855977 0.02639547
-0.10174028 0.09421881 0.05054577 -0.07290903 -0.056566488 0.071335375 -0.05396631 0.063544646
0.049806587 -0.02767205 0.047808588 0.008371807 0.05343089 0.21641484 0.04537629 0.027005048
0.025085019 -0.043301027 -0.06393737 -0.13964584 -0.00786236 -0.017668977 0.042255722 0.15847078
-0.05776582 0.007833117 -0.013473235 0.012666327 0.008740923 0.037003566 -0.06735445 -0.023957688
0.0392048 -0.015019398 0.014288911 0.0020863204 0.0617465 0.0024965967 0.033973806 -0.01142643
-0.100637995 0.102774076 -0.0017273051 -0.03211383 -0.01086326 -0.34133622 -0.011274901 -0.010129869
0.015579324 -0.016649226 0.03711429 0.109464675 0.018871406 -0.058270857 0.021337278 -0.103467055
0.034652457 0.04051104 -0.010981995 -0.0061028525 0.029585985 -0.016323458 -0.012003658 0.05668617
-0.018215284 0.024664508 0.007957149 0.032029066 0.032808382 -0.009457509 -0.0063253003 0.040187847
-0.11529741 -0.018769508 -0.097288355 -0.009471891 0.04429967 -0.2626122 -0.015240838 -0.05611359
0.020352066 -0.018764852 0.064873934 0.21027781 -0.007124834 0.048289053 -0.028810982 -0.0658022
0.054281596 0.011449872 -0.029951222 -0.07852057 0.021385223 0.02977864 0.06430737 0.0291159
0.025170512 -0.030868825 -0.13718723 -0.0062199854 -0.07354307 0.049459033 0.017737577 -0.074126
00000000: a577 a13c 50bc 5ebd 883c ca3b 047c 8e3c
00000010: 4caf bebd 2812 0dbe 985d 16be 6600 24bd
00000020: 7b35 59bd fe0e 1a3e fbf8 213e 9107 323d
00000030: 6d0c a4bb fb7d a53d 4be5 ebbd 3fd2 5fbe
00000040: 124d cb3d 8180 58bd 3cb1 113d be33 713d
00000050: be1c a2bd 0b77 41bd 0090 043e 83f7 593b
00000060: edda 40bd 9c6d c23c fc44 af3d 9e2f 41bd
00000070: 9f6e 64bd 5bcb 65bd 2972 dabd 620a 393d
00000080: 38cd b53d cacf 75be a5b8 8f3c 90de 9a3d
00000090: e0b4 6139 3652 a3be cc05 2cbe 46e9 0fbc
000000a0: 8174 323d 6c73 943d 9a84 1e3e c793 ecbc
000000b0: 225e a0bb 8fdf f53d d1f8 a6bd 5517 5bbe
000000c0: 766c f13c b28c 6fbd 88d8 c1bc b936 873d
000000d0: c03d 9ebd 2e41 9a3c 0294 e93d 0f22 41bd
000000e0: 4e66 253d 7718 8ebd 6d4f 153d cb14 6c3c
000000f0: 5aa8 6dbb 32a8 cebd 08e8 3abc 60bb 01bd
00000100: 9413 3abc 0dc6 14be 639d 373d 8434 7b3d
00000110: a027 9b3d 4855 6e3e 1a8a c8bc 90c6 cabc
00000120: 0c5c dd3a 1bda 60bc ade3 e73c 2809 09be
00000130: c748 70bd 7262 6d3d ec70 9cbc 5cae 1b3e
00000140: 4bd1 013b a909 06bd 7db9 3cbd 6660 033d
00000150: adea 01bc 0a32 dd3d 718e c0bd 230b de3c
00000160: 92c9 a33d dc39 0bbd da47 343c 9bd2 ab3b
00000170: ad4d 9b3d dc2b 173d b61d 0fbc 2b44 07bd
00000180: b937 ff3d bac5 03be a49f eabb 1a86 433d
00000190: 95aa a43c d689 983e e308 723b bdbf b33c
000001a0: 72c1 1a3c 2f60 0b3d 34f6 30bd 743f f5bd
000001b0: eab4 7abc da24 6b3d f862 77bc 66a5 a93d
000001c0: 8009 6dbd f6c0 2cbd b0b7 ac3c b569 c8bb
000001d0: 33e9 14bd b084 9b3b d92a 0c3d dedc b6bd
000001e0: c909 d53c 3bea 04bd 5ac3 953b bdb3 11bd
000001f0: 6f9e 4abd 7b35 8bbc 531a 9b3c 83b2 02bd
00000200: bb56 58bd c076 9d3e 346a a2bc 94cc dcbd
00000210: ae90 b1bd 964d e73e 796d 173e 575f 183c
00000220: 198d d4bd 8423 b2ba 4a7d 43be a6e3 e9ba
00000230: 015a af3c 55c4 d6bd a79d 013d 712a 893d
00000240: c136 d73c 15c4 cf3c 9c59 8f3d 687c 2fbd
00000250: 820e af3c acdc bbbd 7c66 73bc 503b d83c
00000260: 355d d0bd cbf5 c03d 1509 4f3d 5451 95bd
00000270: 43b2 67bd 4818 923d c70b 5dbd b223 823d
00000280: fe01 4c3d 7fb0 e2bc f0d2 433d e729 093c
00000290: 59da 5a3d da9b 5d3e 7ddc 393d b139 dd3c
000002a0: 197f cd3c 6b5c 31bd 99f1 82bd 52ff 0ebe
000002b0: 21d1 00bc 88be 90bc 5614 2d3d 2a46 223e
000002c0: da9b 6cbd 7956 003c d8be 5cbc 6d86 4f3c
000002d0: 1736 0f3c 0d91 173d 21f1 89bd ea42 c4bc
000002e0: 3695 203d ec13 76bc 091c 6a3c a6ba 083b
000002f0: e6e9 7c3d f19d 233b 1e28 0b3d ec35 3bbc
00000300: 4b1b cebd 377b d23d be66 e2ba cb89 03bd
00000310: d1fb 31bc 9fc3 aebe 5dba 38bc c0f7 25bc
00000320: 6c40 7f3c f563 88bc 2705 183d 042f e03d
00000330: 3598 9a3c 6cad 6ebd 84cb ae3c 89e6 d3bd
00000340: bcef 0d3d e7ee 253d d3ed 33bc 70fa c7bb
00000350: 4f5e f23c c6b8 85bc feaa 44bc c22f 683d
00000360: 3838 95bc 390d ca3c b45e 023c e930 033d
00000370: 1562 063d abf3 1abc 7744 cfbb 039c 243d
00000380: 0c21 ecbd 83c2 99bc 1e3f c7bd fe2f 1bbc
00000390: 9273 353d 1b75 86be b5b4 79bc 5dd7 65bd
000003a0: 60b9 a63c bfb8 99bc a0dc 843d 1153 573e
000003b0: 7177 e9bb beca 453d 0205 ecbc 4ec3 86bd
000003c0: 6156 5e3d 3e98 3b3c 445c f5bc 65cf a0bd
000003d0: 1030 af3c 56f2 f33c 95b3 833d 7884 ee3c
000003e0: 6432 ce3c 9ee0 fcbc cf7a 0cbe 05d1 cbbb
000003f0: c09d 96bd 8e95 4a3d 654e 913c 5fcf 97bd

context_transformer_0/ffn_layer_0/intermediate_dense/einsum/Einsum;context_transformer_0/ffn_layer_0/intermediate_dense/Relu;context_transformer_0/ffn_layer_0/intermediate_dense/add f4 [32]
-0.1867696 -0.18951364 -0.18481594 -0.08516858 -0.38269055 -0.06579483 -0.15695061 -0.22449027
-0.17493737 -0.15612674 -0.49285454 -0.14558025 -0.15577236 -0.13695073 -0.16044655 -0.1322848
-0.18680006 0.025735114 -0.30926967 -0.2403674 -0.34591246 -0.1890908 -0.1941884 -0.33998936
-0.17317219 -0.2725724 -0.22412078 -0.19145782 -0.4644268 -0.3454831 -0.117730156 -0.153247
00000000: 8840 3fbe dd0f 42be 6440 3dbe dd6c aebd
00000010: 04f0 c3be 71bf 86bd a9b7 20be c7e0 65be
00000020: c822 33be b0df 1fbe 6e57 fcbe fd12 15be
00000030: ca82 1fbe d03c 0cbe 1a4c 24be ab75 07be
00000040: 8448 3fbe 72d2 d23c 9858 9ebe df22 76be
00000050: 701b b1be 05a1 41be 53d9 46be 1613 aebe
00000060: 0d54 31be 9c8e 8bbe eb7f 65be 850d 44be
00000070: 59c9 edbe 29e3 b0be 821c f1bd c8ec 1cbe

context_transformer_0/attention/norm/mul;context_transformer_0/attention/norm/add;context_transformer_0/ffn_layer_0/intermediate_dense/einsum/Einsum;context_transformer_0/ffn_layer_0/intermediate_dense/Relu;context_transformer_0/ffn_layer_0/intermediate_dense/add f4 [32, 32]
-0.27430755 0.21449684 -0.009607357 0.23270212 -0.045254465 0.21254347 -0.036718234 -0.14950131
-0.27028275 -0.0067805825 0.19829026 0.20177642 -0.18330194 0.15793079 0.124076016 -0.06598687
-0.19595319 0.105431125 0.13598323 0.012573827 -0.08114422 0.035933916 -0.027084498 0.08032683
0.3059185 -0.18900777 -0.16078745 0.16442814 0.3726875 0.013398429 -0.35510367 0.066945195
-0.007402116 0.56729275 0.18654846 0.04283124 -0.20314723 0.3168248 0.07765441 -0.15294129
-0.050564274 -0.09594095 -0.01945891 0.07403442 0.27218503 0.11498346 0.091163814 -0.044417482
-0.0922154 0.053422436 0.2916001 0.20067309 -0.069172025 0.344501 -0.04682525 0.18656142
0.44708684 -0.12061616 -0.21281669 0.050007604 -0.2240805 0.29379764 -0.082265325 0.084809795
-0.32173085 0.11048984 -0.040611427 0.08372919 -0.08968236 -0.22250246 -0.010023361 0.008181806
0.10317927 -0.025148809 0.15315448 0.10971384 -0.42355594 0.04073253 -0.26563573 0.13070692
0.16564696 0.015655302 -0.1377955 0.17089754 -0.07332475 0.0023929488 -0.25212014 0.21497066
0.062736705 -0.2369827 0.044714827 -0.09832784 0.38926026 0.031039005 -0.064339966 -0.1072744
-0.45121324 0.53449607 -0.059419814 0.2221971 -0.29286024 0.15865444 0.19458324 0.026077967
-0.27635536 -0.14759327 0.16359642 -0.04991781 -0.23527052 0.21576917 0.17655866 0.24703589
-0.28422174 0.17466913 -0.049690604 -0.03656324 -0.049249858 -0.011681147 -0.0860147 -0.039394215
0.3489642 -0.23321001 0.032297928 0.050086886 0.24105887 -0.069141224 -0.35225177 0.13265586
-0.06842217 0.3439466 0.07684568 -0.08490805 -0.107768 0.19161291 -0.17228474 -0.11615541
-0.26205245 0.014813795 0.03737262 -0.001007567 -0.4298011 -0.21971229 -0.02314233 -0.04941902
-0.29640606 -0.035296228 0.17665449 0.3124594 -0.23784146 -0.06070981 0.06165278 -0.1039962
-0.051596362 -0.39457378 -0.35903537 -0.08558732 0.04937287 0.05531324 -0.091516905 -0.17331763
-0.32801124 0.031446505 -0.017201358 -0.045750394 0.04879695 -0.12966454 0.31623352 0.24545863
0.05788373 -0.11150567 0.19407676 0.07194098 -0.011705283 -0.26406708 -0.05986589 -0.17028409
-0.27019387 0.36860794 0.028564788 -0.0040558646 -0.1596902 -0.06136414 0.32691166 0.052477296
-0.065041654 0.014750772 -0.094246365 0.0089962855 0.18003863 -0.3342144 -0.13596474 -0.073691115
-0.11897271 0.24963431 -0.024672704 -0.17921816 -0.15515439 -0.047133297 -0.116892055 -0.036466844
0.04311691 0.15018108 0.06225961 -0.02285266 -0.061816476 -0.2650887 0.025495611 -0.017648363
0.2397647 0.011078009 0.22637147 0.058121815 -0.42235473 0.08717939 -0.3578843 -0.14077789
0.10197608 0.14804272 -0.2347984 0.16804056 0.15404847 0.32091695 -0.24280667 -0.108826645
0.016323358 0.35144252 -0.055000395 0.048036706 -0.23669857 0.031706464 -0.24130274 -0.007605105
0.088991396 0.2364094 -0.47723022 0.042552024 0.24015436 -0.020699997 0.1633741 -0.20108362
-0.088889204 0.0313479 0.24653278 -0.10222255 0.11038624 0.7780569 -0.0739445 -0.14812934
0.43552378 -0.25250366 0.15581444 0.030407371 0.13644852 0.06277935 -0.058078866 0.36262083
00000000: 0a72 8cbe 0fa5 5b3e 2d68 1dbc 7749 6e3e
00000010: bf5c 39bd ffa4 593e dc65 16bd df16 19be
00000020: 8062 8abe a62f debb 9a0c 4b3e 7a9e 4e3e
00000030: 81b3 3bbe 9cb8 213e 911b fe3d 2024 87bd
00000040: f4a7 48be 46ec d73d 303f 0b3e 7402 4e3c
00000050: f12e a6bd 712f 133d 4fe0 ddbc 6582 a43d
00000060: 5aa1 9c3e 418b 41be 77a5 24be da5f 283e
00000070: e5d0 be3e 1685 5b3c 26d0 b5be 901a 893d
00000080: 738d f2bb 193a 113f 8f06 3f3e cf6f 2f3d
00000090: d405 50be dc36 a23e 4609 9f3d a49c 1cbe
000000a0: 7c1c 4fbd b07c c4bd 4b68 9fbc 5c9f 973d
000000b0: d65b 8b3e 737c eb3d 18b4 ba3d 1bef 35bd
000000c0: 6ddb bcbd 7cd1 5a3d 9c4c 953e 3f7d 4d3e
000000d0: 10aa 8dbd 6f62 b03e d5cb 3fbd f509 3f3e
000000e0: 91e8 e43e 9b05 f7bd 9eec 59be c6d4 4c3d
000000f0: 5c75 65be a56c 963e b97a a8bd c2b0 ad3d
00000100: e8b9 a4be 7f48 e23d 2b58 26bd 367a ab3d
00000110: 63ab b7bd afd7 63be 0639 24bc fb0c 063c
00000120: a74f d33d e004 cebc 87d4 1c3e a6b1 e03d
00000130: 53dc d8be 27d7 263d 6801 88be 09d8 053e
00000140: 5b9f 293e 8c3f 803c 431a 0dbe c4ff 2e3e
00000150: 492b 96bd 05d3 1c3b e415 81be 4521 5c3e
00000160: 1a7c 803d 98ab 72be e526 373d 1b60 c9bd
00000170: 1f4d c73e 8345 fe3c acc4 83bd aeb2 dbbd
00000180: 6c05 e7be bcd4 083f 3162 73bd a387 633e
00000190: c7f1 95be 4f76 223e d440 473e 76a1 d53c
000001a0: 737e 8dbe b122 17be d285 273e 9e76 4cbd
000001b0: c1ea 70be 98f2 5c3e cbcb 343e faf6 7c3e
000001c0: 8385 91be 77dc 323e 6088 4bbd 56c3 15bd
000001d0: 38ba 49bd 4862 3fbc 7a28 b0bd d45b 21bd
000001e0: 70ab b23e 9bce 6ebe d54a 043d e827 4d3d
000001f0: 23d8 763e ea99 8dbd 585a b4be f0d6 073e
00000200: ec20 8cbd c519 b03e 4561 9d3d 46e4 adbd
00000210: 78b5 dcbd 2d36 443e 696b 30be e3e2 edbd
00000220: bd2b 86be 8fb5 723c 0814 193d 5710 84ba
00000230: e40e dcbe 42fc 60be fc94 bdbc 996b 4abd
00000240: 89c2 97be c792 10bd eae4 343e aefa 9f3e
00000250: b68c 73be daaa 78bd a087 7c3d f6fb d4bd
00000260: b556 53bd 9305 cabe 7cd3 b7be 6848 afbd
00000270: 353b 4a3d 2390 623d 376d bbbd 2d7a 31be
00000280: 17f1 a7be 0dce 003d dde9 8cbc c464 3bbd
00000290: 50df 473d c8c6 04be 5ce9 a13e 8259 7b3e
000002a0: 7d17 6d3d 165d e4bd 0fbc 463e cb55 933d
000002b0: 84c7 3fbc cd33 87be ef35 75bd f45e 2ebe
000002c0: da56 8abe 2eba bc3e b400 ea3c 0fe7 84bb
000002d0: d485 23be f758 7bbd f760 a73e 6ff2 563d
000002e0: 8f34 85bd 39ad 713c 3d04 c1bd 2865 133c
000002f0: 0c5c 383e 261e abbe 573a 0bbe 5eeb 96bd
00000300: f7a7 f3bd 23a0 7f3e 691e cabc f784 37be
00000310: cbe0 1ebe d80e 41bd 1a65 efbd 425e 15bd
00000320: 5b9b 303d 12c9 193e ef03 7f3d 8035 bbbc
00000330: 4633 7dbd b5b9 87be 2cdc d03c 4d93 90bc
00000340: e184 753e 8a80 353c eccd 673e 2411 6e3d
00000350: e13e d8be 1c8b b23d 9c3c b7be 1428 10be
00000360: d6d8 d03d 8398 173e fe6e 70be d312 2c3e
00000370: e2be 1d3e 3a4f a43e 50a2 78be 81e0 debd
00000380: 90b8 853c 46f0 b33e 1848 61bd 23c2 443d
00000390: 1c61 72be a3de 013d 1118 77be 3f34 f9bb
000003a0: 1f41 b63d 4e15 723e 8557 f4be 084b 2e3d
000003b0: 06eb 753e 0a93 a9bc 8a4b 273e dde8 4dbe
000003c0: 8b0b b6bd a866 003d 1773 7c3e 0e5a d1bd
000003d0: 2e12 e23d bd2e 473f 3770 97bd 38af 17be
000003e0: f9fc de3e 2948 81be d28d 1f3e e118 f93c
000003f0: 29b9 0b3e 7692 803d 1be4 6dbd 70a9 b93e

context_transformer_0/ffn_layer_1/intermediate_dense/einsum/Einsum;context_transformer_0/ffn_layer_1/intermediate_dense/Relu;context_transformer_0/ffn_layer_1/intermediate_dense/add f4 [32]
-0.16571482 0.030238476 -0.3247214 -0.23506871 -0.011786048 -0.28701782 -0.10550567 0.010957014
-0.2871335 -0.0737828 0.068176016 -0.46029148 -0.20760716 -0.121197686 -0.16618189 -0.23615898
-0.29658693 -0.13740045 -0.44529727 -0.19940534 -0.10865663 -0.2268445 -0.31503558 -0.084161
-0.41245982 -0.3491102 -0.25762787 -0.08494042 -0.12522738 -0.46574846 -0.21937542 -0.36391968
00000000: 25b1 29be aeb6 f73c e241 a6be dab5 70be
00000010: 451a 41bc 00f4 92be 5b13 d8bd 0c85 333c
00000020: 2a03 93be 701b 97bd de9f 8b3d 53ab ebbe
00000030: f996 54be 7e36 f8bd 962b 2abe a9d3 71be
00000040: 3eda 97be b4b2 0cbe 01fe e3be ea30 4cbe
00000050: 5e87 debd ed49 68be 584c a1be 9a5c acbd
00000060: ef2d d3be 92be b2be cde7 83be 3ef5 adbd
00000070: 9b3b 00be 9576 eebe f3a3 60be ae53 babe

context_transformer_0/ffn_layer_0/norm/mul;context_transformer_0/ffn_layer_0/norm/add;context_transformer_0/ffn_layer_1/intermediate_dense/einsum/Einsum;context_transformer_0/ffn_layer_1/intermediate_dense/Relu;context_transformer_0/ffn_layer_1/intermediate_dense/add f4 [32, 32]
-0.16467048 -0.016789448 -0.004862847 -0.0035504254 -0.08576972 -0.02463867 0.31072965 0.018964672
-0.026883498 0.0059137624 0.23259206 0.0362651 0.19551784 0.31036454 -0.32379398 0.099687815
-0.168518 0.18052736 0.3473046 -0.05806914 0.11466202 0.1716749 0.18174025 0.24459188
-0.12803133 0.12740785 -0.24879535 -0.42154324 -0.03647842 0.034452908 -0.001931422 -0.11991829
0.088700764 0.32841855 -0.07435732 -0.010932049 -0.15882568 0.1736105 0.08412568 -0.115016915
-0.097509034 0.0029126103 -0.0022875834 0.31980443 0.17918573 -0.2944054 0.030021481 -0.15026517
-0.09577255 0.02770097 0.36135948 -0.29647815 0.020249557 0.40215752 -0.21020897 0.06886075
0.27050552 0.11976175 -0.17910759 -0.1959459 0.094646186 -0.03594274 -0.201901 0.27049664
0.14139578 0.015339926 0.06681877 -0.14129318 -0.28247625 0.09571897 0.034976505 0.15141633
-0.17981553 0.23826297 0.22147387 0.062891826 -0.26787743 -0.17637464 -0.26906058 -0.03616272
-0.23751135 -0.08865274 -0.14709544 -0.15748596 -0.10353514 -0.3031806 -0.12933525 -0.08071948
0.103356846 -0.20207565 0.066324696 -0.46827427 -0.20949137 0.0363495 0.3753802 0.04723985
-0.09248762 -0.04168953 -0.106324084 0.14524002 -0.26544496 -0.061892252 0.19150767 -0.24354383
0.044429578 0.00017939134 -0.22089303 0.045508362 -0.07420733 0.038920835 0.237027 0.022418117
0.18586549 0.18405493 0.16064964 -0.31942803 0.010291468 0.27753073 0.098402575 -0.019728404
0.18725151 -0.23590015 -0.32450682 0.17969318 0.06668561 -0.15883186 0.1271581 0.46844167
-0.1699554 0.13041435 -0.17268342 -0.045297828 -0.14903274 -0.0008308245 -0.42145512 0.1548629
0.06693166 0.075717784 0.31757808 0.25734538 0.21960694 0.10238433 -0.077109724 -0.24605624
0.050496425 0.059306644 0.20087725 -0.110988125 0.054903787 0.17097275 -0.18058202 -0.030899698
0.04388165 -0.36612648 -0.16892263 0.11564375 0.030216718 -0.13661443 -0.0032041413 0.04521673
0.20081368 0.12757011 0.19592223 0.11063047 0.13243806 -0.3442684 0.10813681 -0.16597633
-0.08538019 0.06619106 0.08189694 0.17174211 0.24034435 0.2994395 -0.088571504 -0.024045024
-0.006145002 -0.0100957835 0.020088403 0.1638 -0.115924016 -0.032847583 -0.09917113 0.12123536
-0.16532832 -0.61856914 -0.050479602 0.004268727 0.22579974 0.25859508 0.028565932 -0.036496975
-0.030793874 0.2159723 -0.038715728 -0.036621038 0.1967267 0.05148318 -0.080164745 0.3493868
0.17235175 0.12501937 0.2407445 -0.09466622 0.07841223 -0.093104534 0.11254669 -0.47970393
-0.43413046 0.30487093 0.03634245 0.06672627 0.017024286 -0.19861166 -0.009177583 -0.072098315
0.091159485 0.023317322 0.20167446 0.1562904 0.043357804 -0.15163113 -0.0003711617 0.48572525
0.33302486 0.13450158 -0.19244686 0.21450394 -0.16843472 -0.018364608 0.2586299 0.09684334
-0.47686332 -0.12978877 -0.043036632 0.14367637 -0.012037018 -0.09141298 0.17326805 -0.10316985
-0.07219567 0.19913468 0.46974403 0.05774514 -0.11063819 -0.036445357 -0.019606177 -0.05561388
-0.15629227 0.167137 -0.20865127 -0.16263328 -0.32058966 0.41566724 -0.10247385 0.161518
00000000: 619f 28be 068a 89bc 8458 9fbb 41ae 68bb
00000010: 09a8 afbd 09d7 c9bc f517 9f3e cd5b 9b3c
00000020: c83a dcbc 3cc8 c13b 9d2c 6e3e b78a 143d
00000030: d435 483e 1ae8 9e3e 53c8 a5be 2029 cc3d
00000040: fc8f 2cbe 2adc 383e e9d1 b13e e8d9 6dbd
00000050: ecd3 ea3d 8ccb 2f3e 1e1a 3a3e 4b76 7a3e
00000060: a51a 03be 3477 023e 35c4 7ebe 84d4 d7be
00000070: 656a 15bd 7e1e 0d3d c527 fdba b897 f5bd
00000080: bfa8 b53d 7a26 a83e a748 98bd 561c 33bc
00000090: 33a3 22be f3c6 313e 164a ac3d fd8d ebbd
000000a0: d1b2 c7bd 7ee1 3e3b 48eb 15bb 68bd a33e
000000b0: 777c 373e 4ebc 96be 9cef f53c 1ddf 19be
000000c0: 6624 c4bd 25ed e23c 1c04 b93e fccb 97be
000000d0: 66e2 a53c 97e7 cd3e 0541 57be dd06 8d3d
000000e0: b37f 8a3e a645 f53d fb67 37be 0ba6 48be
000000f0: dcd5 c13d b238 13bd 23bf 4ebe 897e 8a3e
00000100: 0eca 103e 5054 7b3c 47d8 883d 29af 10be
00000110: baa0 90be 4f08 c43d 8643 0f3d e20c 1b3e
00000120: 9021 38be 35fb 733e 0cca 623e 6ecd 803d
00000130: 3b27 89be 8e9b 34be 4fc2 89be 5c1f 14bd
00000140: 2d36 73be 918f b5bd 30a0 16be 0044 21be
00000150: 3b0a d4bd 7d3a 9bbe 7670 04be 4150 a5bd
00000160: c1ac d33d ebec 4ebe 3ed5 873d a5c1 efbe
00000170: e884 56be 37e3 143d d531 c03e 937e 413d
00000180: 266a bdbd a4c2 2abd 71c0 d9bd cdb9 143e
00000190: 67e8 87be bb82 7dbd 961a 443e 8e63 79be
000001a0: cafb 353d ff1a 3c39 c831 62be fa66 3a3d
000001b0: 03fa 97bd 746b 1f3d 35b7 723e 33a6 b73c
000001c0: 8653 3e3e e578 3c3e 5781 243e 128c a3be
000001d0: 8c9d 283c 8218 8e3e 4a87 c93d 769d a1bc
000001e0: dcbe 3f3e cf8f 71be c225 a6be 7d01 383e
000001f0: 7792 883d d2a4 22be bc35 023e 96d7 ef3e
00000200: ca08 2ebe 578b 053e ecd3 30be 378a 39bd
00000210: 0a9c 18be b0cb 59ba f7c8 d7be 6194 1e3e
00000220: 7713 893d ed11 9b3d 9899 a23e c6c2 833e
00000230: a4e0 603e e0ae d13d b4eb 9dbd 2bf6 7bbe
00000240: 57d5 4e3d 86eb 723d c4b2 4d3e be4d e3bd
00000250: cbe2 603d 7b13 2f3e 7eea 38be 5d21 fdbc
00000260: 3fbd 333d ee74 bbbe 0efa 2cbe a1d6 ec3d
00000270: 0d89 f73c a7e4 0bbe 92fc 51bb 2e35 393d
00000280: 1aa2 4d3e bda1 023e d69f 483e 3a92 e23d
00000290: d89d 073e f343 b0be d576 dd3d b3f5 29be
000002a0: cfdb aebd 2e8f 873d 95b9 a73d 2add 2f3e
000002b0: d41c 763e 2250 993e fa64 b5bd 12fa c4bc
000002c0: 035c c9bb c968 25bc 6f90 a43c 30bb 273e
000002d0: 9269 edbd 308b 06bd 3c1a cbbd 3f4a f83d
000002e0: d44b 29be 8c5a 1ebf b3c3 4ebd ade0 8b3b
000002f0: 0c38 673e 9366 843e 1a03 ea3c da7d 15bd
00000300: 6f43 fcbc d827 5d3e 6294 1ebd f1ff 15bd
00000310: b972 493e 07e0 523d 6a2d a4bd d4e2 b23e
00000320: fa7c 303e 1405 003e ba85 763e 5de0 c1bd
00000330: 9796 a03d 97ad bebd e17e e63d c19b f5be
00000340: 5946 debe 0b18 9c3e d2db 143d c8a7 883d
00000350: 8476 8b3c db60 4bbe 935d 16bc 48a8 93bd
00000360: d3b1 ba3d f803 bf3c c083 4e3e 970a 203e
00000370: f497 313d 3145 1bbe 7b98 c2b9 fbb0 f83e
00000380: 3c82 aa3e c8ba 093e ca10 45be eca6 5b3e
00000390: 277a 2cbe 6071 96bc 236b 843e cd55 c63d
000003a0: 6e27 f4be 59e7 04be 2e47 30bd e61f 133e
000003b0: ea36 45bc ba36 bbbd 2e6d 313e b74a d3bd
000003c0: 53db 93bd f6e9 4b3e 4a82 f03e 2b86 6c3d
000003d0: 4696 e2bd ba47 15bd 229d a0bc 61cb 63bd
000003e0: 150b 20be f625 2b3e aea8 55be 5789 26be
000003f0: 5424 a4be 56d2 d43e cfdd d1bd f964 253e

context_transformer_0/ffn_layer_2/intermediate_dense/einsum/Einsum;context_transformer_0/ffn_layer_2/intermediate_dense/Relu;context_transformer_0/ffn_layer_2/intermediate_dense/add f4 [32]
-0.23219891 0.049962755 -0.28162932 -0.058246695 -0.18991306 -0.17764921 -0.18609287 -0.029012935
-0.03585554 -0.043857746 0.030155988 -0.14280242 -0.2723698 -0.022712154 -0.21517198 -0.15641911
-0.01863724 -0.33232573 0.08650953 -0.38970497 0.1972325 -0.15234892 -0.20646864 -0.045259472
-0.21009898 -0.36382565 -0.2366621 -0.15606989 0.0027221253 -0.2017062 -0.08807004 -0.09340516
00000000: 8dc5 6dbe bfa5 4c3d b831 90be 1694 6ebd
00000010: 9278 42be ade9 35be 218f 3ebe 89ac edbc
00000020: 42dd 12bd 2ea4 33bd b109 f73c cc3a 12be
00000030: 0e74 8bbe d70e babc 0b56 5cbe 552c 20be
00000040: 20ad 98bc 9926 aabe e92b b13d 6987 c7be
00000050: 51f7 493e 5b01 1cbe 846c 53be ff61 39bd
00000060: 3024 57be 5b47 babe 8d57 72be c9d0 1fbe
00000070: af65 323b 128c 4ebe 115e b4bd 344b bfbd

context_transformer_0/ffn_layer_1/norm/mul;context_transformer_0/ffn_layer_1/norm/add;context_transformer_0/ffn_layer_2/intermediate_dense/einsum/Einsum;context_transformer_0/ffn_layer_2/intermediate_dense/Relu;context_transformer_0/ffn_layer_2/intermediate_dense/add f4 [32, 32]
0.2787561 0.06801888 0.045566615 -0.24957483 -0.09900672 0.21673298 -0.11368341 -0.3858221
0.032915253 -0.117444254 0.09344614 0.01635117 -0.13958295 0.0821003 -0.1224429 0.31389323
-0.22241655 -0.08608579 0.1796804 -0.2728633 0.011320661 0.13029943 0.07037418 -0.078912646
0.24564613 -0.10646475 -0.10144566 -0.14930819 -0.064292334 0.08561631 -0.027117813 -0.002056074
-0.011821105 -0.06585841 -0.05116383 0.32125047 -0.20756915 0.02340461 -0.01510141 0.06771467
-0.1209564 0.009485966 0.37718374 0.096147 -0.16889374 0.2262801 -0.1475762 -0.09043389
-0.17621686 0.16879088 0.11785371 -0.05797222 -0.09789414 -0.19420552 0.006817907 0.20791972
0.0016254697 0.052846942 -0.14275554 0.030894835 0.26084802 -0.031192793 0.00047228107 -0.06592943
-0.097548276 0.37728137 0.10171904 -0.09017248 0.290013 0.011247611 -0.01739963 0.16088252
0.18602438 0.39976445 -0.22549538 -0.1701963 -0.2790954 0.27396867 -0.0041658757 0.06289831
-0.00041842135 -0.0081612775 -0.014576094 -0.049447734 -0.4876498 -0.025502112 -0.12277877 0.058100227
0.3819506 -0.16201976 0.23506446 -0.07713208 -0.1977356 -0.05107944 -0.20173815 0.32177755
0.16370253 0.13525474 0.1081747 0.08597985 0.29281968 -0.011364401 -0.02636818 0.022417847
0.32547638 0.3683944 0.18077645 0.020809514 0.052424293 -0.017668577 -0.005308928 -0.31270722
-0.21872607 0.23458451 0.11965403 -0.11844675 0.23014176 -0.0658188 -0.0768944 0.05352098
0.037545796 -0.1136395 0.10854568 0.045176778 0.056491517 -0.091238335 -0.09757343 0.34372792
0.18837458 0.033250056 0.17405882 -0.05724772 0.39604804 0.13478631 -0.32604268 -0.39709798
0.06304621 0.014415714 0.2113398 0.22171082 -0.062215563 -0.105229996 -0.051629055 0.1897942
0.11351017 -0.26439664 -0.009709688 -0.043565787 -0.12075212 0.06360699 -0.21906632 -0.022622338
-0.12842943 -0.20385322 0.18139294 0.008249782 -0.20530103 0.105821505 -0.06648844 0.06164867
0.17592546 0.114266634 0.11166502 -0.21805663 0.22408636 -0.13879737 0.013430864 -0.0055303364
-0.057202145 0.15783107 -0.1884027 0.031467985 0.2068588 0.098811954 0.3185767 -0.018481543
0.35832152 0.085473575 0.09254131 0.24587911 0.17288606 -0.07431557 0.026089916 -0.17397429
-0.13412257 -0.3233268 -0.16951565 0.079489395 -0.0906281 0.06091392 0.0061880606 -0.019796198
0.0506376 0.0068918997 -0.06609827 0.05712259 -0.32981703 -0.15016478 -0.026814403 -0.1828755
-0.20446984 0.10491609 -0.19915752 0.212647 0.19460465 -0.058970414 0.3427221 -0.049728937
-0.22258241 0.07476383 -0.14051902 -0.24714386 0.17779382 -0.12211387 0.06401441 -0.17208357
0.14174956 -0.07109577 -0.007590074 -0.06529873 0.087347455 0.0405625 0.027355608 0.1483039
0.16250873 0.25183377 0.18278746 0.0621311 0.44450527 -0.060846273 -0.016493868 -0.13427481
0.34302846 0.35624364 0.27127135 -0.09888028 0.12677872 0.01408822 0.19234383 -0.16545542
-0.24308804 0.21709204 0.044859 -0.10554791 0.307136 -0.21482758 -0.1421908 -0.015246436
0.21356459 0.008771547 0.097674586 0.0020374416 0.12044687 -0.050717086 -0.012723047 0.47506624
00000000: 1fb9 8e3e 7c4d 8b3d 0fa4 3a3d 8b90 7fbe
00000010: 09c4 cabd 40ef 5d3e d9d2 e8bd 798a c5be
00000020: 25d2 063d 9d86 f0bd b160 bf3d e4f2 853c
00000030: d5ee 0ebe 3424 a83d 58c3 fabd 9db6 a03e
00000040: 2ac1 63be bf4d b0bd 24fe 373e bdb4 8bbe
00000050: 4b7a 393c 376d 053e 5720 903d f49c a1bd
00000060: a98a 7b3e 310a dabd bec2 cfbd 3fe4 18be
00000070: b3ab 83bd 9b57 af3d 2d26 debc 33bf 06bb
00000080: 4fad 41bc c6e0 86bd 2a91 51bd f17a a43e
00000090: 028d 54be 06bb bf3c e86b 77bc fdad 8a3d
000000a0: fdb7 f7bd 066b 1b3c 3a1e c13e b8e8 c43d
000000b0: 7bf2 2cbe f8b5 673e 371e 17be 6735 b9bd
000000c0: 3172 34be 84d7 2c3e 495d f13d 4774 6dbd
000000d0: b97c c8bd d0dd 46be c068 df3b e8e8 543e
000000e0: b60d d53a 0976 583d 822e 12be 2a17 fd3c
000000f0: df8d 853e 0788 ffbc 7e9c f739 0206 87bd
00000100: 64c7 c7bd 062b c13e 1252 d03d 59ac b8bd
00000110: 957c 943e e647 383c ab89 8ebc 63be 243e
00000120: 2d7d 3e3e edad cc3e 43e8 66be f047 2ebe
00000130: 98e5 8ebe 9f45 8c3e e681 88bb d4d0 803d
00000140: 905f dbb9 e1b6 05bc 92d0 6ebc b589 4abd
00000150: 3cad f9be cee9 d0bc 7073 fbbd 81fa 6d3d
00000160: 078f c33e 82e8 25be bdb4 703e 6df7 9dbd
00000170: 337b 4abe ad38 51bd 7294 4ebe 07c0 a43e
00000180: a3a1 273e 3880 0a3e b28a dd3d 3416 b03d
00000190: 76ec 953e c131 3abc 1502 d8bc a2a5 b73c
000001a0: d7a4 a63e 319e bc3e 761d 393e b778 aa3c
000001b0: dbba 563d b1bd 90bc 84f6 adbb 291b a0be
000001c0: baf9 5fbe ec36 703e 2c0d f53d 3694 f2bd
000001d0: 48aa 6b3e 02cc 86bd d07a 9dbd d138 5b3d
000001e0: 9fc9 193d d4bb e8bd 334d de3d 490b 393d
000001f0: a663 673d 2adb babd 94d4 c7bd 1bfd af3e
00000200: 44e5 403e 3631 083d 7a3c 323e 967c 6abd
00000210: cfc6 ca3e 6c05 0a3e 11ef a6be 6d50 cbbe
00000220: 5f1e 813d e32f 6c3c 7669 583e 2908 633e
00000230: bfd5 7ebd d382 d7bd fd78 53bd 6959 423e
00000240: 0578 e83d ff5e 87be 6215 1fbc 0a72 32bd
00000250: e34c f7bd 6244 823d ec52 60be 7b52 b9bc
00000260: 0183 03be e6be 50be 12bf 393e 182a 073c
00000270: 6f3a 52be f2b8 d83d 172b 88bd 5183 7c3d
00000280: ce25 343e a004 ea3d a1b0 e43d 3d4a 5fbe
00000290: e576 653e e620 0ebe 200d 5c3c d337 b5bb
000002a0: cc4c 6abd 789e 213e a3ec 40be 93e4 003d
000002b0: cbd2 533e ec5d ca3d 7c1c a33e 9b66 97bc
000002c0: eb75 b73e c50c af3d 4c86 bd3d bcc7 7b3e
000002d0: 0b09 313e c332 98bd 85ba d53c 5126 32be
000002e0: 6d57 09be 178b a5be 8395 2dbe 56cb a23d
000002f0: 3a9b b9bd e080 793d 37c5 ca3b a32b a2bc
00000300: 5f69 4f3d 72d5 e13b 885e 87bd 60f9 693d
00000310: c7dd a8be ccc4 19be e1a9 dbbc b743 3bbe
00000320: 8b60 51be 3fde d63d f3ef 4bbe 23c0 593e
00000330: 7146 473e f68a 71bd 4579 af3e 92b0 4bbd
00000340: a5ec 63be c71d 993d 38e4 0fbe 4813 7dbe
00000350: 950f 363e d616 fabd fd19 833d ad36 30be
00000360: cc26 113e a99a 91bd 28b6 f8bb 57bb 85bd
00000370: 39e3 b23d dd24 263d de18 e03c fadc 173e
00000380: b068 263e 5bf0 803e a32c 3b3e 2e7d 7e3d
00000390: 3296 e33e f139 79bd 261e 87bc 567f 09be
000003a0: 6da1 af3e 9165 b63e 14e4 8a3e bf81 cabd
000003b0: 48d2 013e 47d2 663c c8f5 443e 256d 29be
000003c0: 12ec 78be 604d 5e3e 12be 373d 8129 d8bd
000003d0: ee40 9d3e c3fb 5bbe 779a 11be 30cc 79bc
000003e0: adb0 5a3e 89b6 0f3c 9d09 c83d 9986 053b
000003f0: d9ac f63d b8bc 4fbd 5474 50bc e23b f33e

context_transformer_0/ffn_layer_3/intermediate_dense/einsum/Einsum;context_transformer_0/ffn_layer_3/intermediate_dense/Relu;context_transformer_0/ffn_layer_3/intermediate_dense/add f4 [32]
-0.12073098 -0.14505765 -0.12368141 -0.10249618 -0.036039006 -0.10247758 -0.22065979 0.062578246
-0.23350622 -0.08156705 -0.032481395 0.04537416 -0.100433156 -0.10581002 -0.3385361 -0.19113146
-0.024763862 -0.09196181 -0.2591644 -0.11672851 -0.040122278 -0.12056799 -0.21059676 -0.087842576
0.062163614 -0.16724177 -0.043132834 -0.022270907 -0.2205202 0.0017084402 -0.15721272 -0.07790521
00000000: ce41 f7bd fe89 14be ae4c fdbd 84e9 d1bd
00000010: a39d 13bd c4df d1bd a4f4 61be 0629 803d
00000020: 411c 6fbe a00c a7bd 360b 05bd 41da 393d
00000030: e6af cdbd ecb2 d8bd 9b54 adbe f7b7 43be
00000040: 95dd cabc 7956 bcbd 32b1 84be 5b0f efbd
00000050: 4257 24bd 5aec f6bd ada6 57be cfe6 b3bd
00000060: 469f 7e3d 6d41 2bbe 0eac 30bd 7a71 b6bc
00000070: 0cd0 61be beed df3a 5ffc 20be c48c 9fbd
